log/model_checkpoint.pkl (torch, 9097 bytes, 18 tensors)

encoder.lstm.weight_ih_l0 f4 [16, 8]
0.3154121 0.2889622 0.55214125 -0.069013074 -0.19502772 0.23765802 0.058231633 -0.05642143
0.42305747 -0.11904534 -0.057633508 -0.080732495 0.01930733 0.35809693 -0.4552987 0.021517027
0.254722 -0.0048137633 -0.27510563 0.5445695 0.3527684 -0.13655356 -0.4295856 0.1136696
-0.34089008 0.16039355 0.08740992 -0.0518172 -0.2774854 -0.4186507 -0.28241923 -0.1444652
0.043265916 -0.4277078 0.33433065 -0.40351772 0.3471571 0.17205182 0.33399266 0.019805398
0.31648147 0.28028414 -0.20020193 -0.035786558 0.4692998 0.20373909 0.39749333 -0.30022398
-0.48417363 -0.38906503 -0.3724872 0.37934625 -0.47812095 0.41967443 0.23259611 -0.10286299
0.0009001661 0.027586075 0.22415778 -0.47824228 -0.22771077 0.037417077 0.35652712 -0.27567196
0.32230347 0.46229312 -0.25345832 -0.37849692 -0.53443575 -0.24720287 0.14026289 0.48833814
-0.06446176 0.09986272 0.4823881 -0.35787532 -0.043895047 0.5087655 0.23182508 -0.29666904
-0.36941504 0.37246254 -0.28504583 -0.1557045 0.1576484 -0.38889453 0.3271015 0.3896533
0.4905679 -0.43397853 0.37197483 -0.05876187 -0.1793954 0.39412048 0.07028017 -0.35423377
-0.21738301 0.12126183 0.36144418 0.04425402 -0.06041617 -0.13405588 -0.3647457 -0.43772066
0.101889476 0.10437533 -0.020295167 0.3222222 -0.07730506 0.029504692 0.119236566 -0.39035836
0.27100742 -0.35703832 -0.028388852 0.32916886 -0.046487704 0.4215174 0.1690415 -0.29007956
0.37106568 0.34590524 -0.47713724 0.103830546 0.13077377 0.31400135 0.19673915 -0.15016805
00000000: b27d a13e daf2 933e 2159 0d3f ba56 8dbd
00000010: 59b5 47be a05c 733e 4b84 6e3d 281a 67bd
00000020: fd9a d83e 0bce f3bd 1d11 6cbd 1457 a5bd
00000030: 682a 9e3c 7b58 b73e e91c e9be 7a44 b03c
00000040: ec6a 823e c6bc 9dbb a5da 8cbe e868 0b3f
00000050: 0f9e b43e b2d4 0bbe a5f2 dbbe 9bcb e83d
00000060: 2589 aebe 353e 243e f903 b33d 463e 54bd
00000070: 9112 8ebe 6259 d6be 4199 90be afee 13be
00000080: 9a37 313d 84fc dabe 632d ab3e e099 cebe
00000090: 93be b13e 5a2e 303e 1601 ab3e ee3e a23c
000000a0: dc09 a23e 6781 8f3e bc01 4dbe ed94 12bd
000000b0: 1048 f03e fba0 503e 3f84 cb3e f5b6 99be
000000c0: 9be5 f7be 8833 c7be a4b6 bebe ac39 c23e
000000d0: 45cc f4be 91df d63e ad2d 6e3e d5a9 d2bd
000000e0: 20f9 6b3a 31fc e13c 9e89 653e 2cdc f4be
000000f0: 032d 69be a642 193d b98a b63e e024 8dbe
00000100: f604 a53e afb1 ec3e 4ac5 81be 59ca c1be
00000110: c8d0 08bf c022 7dbe 13a1 0f3e 7507 fa3e
00000120: 8704 84bd d384 cc3d 93fb f63e 6f3b b7be
00000130: 4bcb 33bd 753e 023f 8e63 6d3e 01e5 97be
00000140: f823 bdbe 69b3 be3e 87f1 91be 0071 1fbe
00000150: 956e 213e 2f1d c7be d979 a73e a380 c73e
00000160: b72b fb3e 6f32 debe 7c73 be3e 49b0 70bd
00000170: 6eb3 37be 29ca c93e 0def 8f3d 215e b5be
00000180: a799 5ebe 1f58 f83d 360f b93e b443 353d
00000190: f276 77bd f245 09be f3bf babe ec1c e0be
000001a0: 6eab d03d bcc2 d53d 0d42 a6bc 4ffa a43e
000001b0: 1e52 9ebd d3b3 f13c 4d32 f43d 0ddd c7be
000001c0: 7cc1 8a3e bacd b6be bd8f e8bc d288 a83e
000001d0: e469 3ebd 21d1 d73e 3719 2d3e 4f85 94be
000001e0: 52fc bd3e 7e1a b13e 554b f4be 1ca5 d43d
000001f0: 8fe9 053e c9c4 a03e fd75 493e a7c5 19be

encoder.lstm.weight_hh_l0 f4 [16, 4]
-0.078798234 -0.21153957 -0.3179367 -0.056148622 0.10061276 0.26370272 0.27428976 -0.439136
0.24735282 -0.1849748 0.37226352 -0.18894549 0.04758857 0.3501234 -0.15449397 0.21520856
-0.4219444 0.43230152 0.2742509 0.32276767 -0.25539765 0.48627225 0.27622703 -0.036932476
-0.2729958 -0.09743548 -0.1609243 0.3616385 -0.17661166 -0.16263284 -0.37187806 0.08827805
-0.15268198 -0.046963777 0.47646344 -0.26441094 0.330003 0.080332845 -0.20347697 -0.3833523
0.29593682 0.007321905 0.42970157 0.51042783 -0.25758123 -0.18045755 0.42519766 0.029600356
0.45977515 0.10924693 -0.23142765 -0.2936055 0.43244532 0.28398612 -0.21138197 0.27436313
0.15156904 0.38919637 0.006625684 -0.36046132 0.1786235 0.04668576 -0.435877 -0.2866505
00000000: f860 a1bd d49d 58be 99c8 a2be 19fc 65bd
00000010: 100e ce3d 0b04 873e b56f 8c3e 6fd6 e0be
00000020: 0f4a 7d3e 096a 3dbe 5399 be3e ed7a 41be
00000030: 3bec 423d 6043 b33e ab33 1ebe a25f 5c3e
00000040: 1909 d8be a056 dd3e 9d6a 8c3e ce41 a53e
00000050: 7bc3 82be adf8 f83e a16d 8d3e 8246 17bd
00000060: 1bc6 8bbe 418c c7bd 57c9 24be ae28 b93e
00000070: b0d9 34be 3989 26be cd66 bebe 1fcb b43d
00000080: aa58 1cbe 175d 40bd 04f3 f33e df60 87be
00000090: 27f6 a83e 8c85 a43d 445c 50be c146 c4be
000000a0: 0885 973e 97ec ef3b d801 dc3e 66ab 023f
000000b0: b0e1 83be ddc9 38be 82b3 d93e 727c f23c
000000c0: a667 eb3e dbbc df3d 5ffb 6cbe 7653 96be
000000d0: 7969 dd3e a166 913e 8474 58be 5379 8c3e
000000e0: ea34 1b3e bf44 c73e 441c d93b 638e b8be
000000f0: 14e9 363e 9139 3f3d 452b dfbe dbc3 92be

encoder.lstm.bias_ih_l0 f4 [16]
-0.07925056 0.32224962 0.036205206 0.23567428 -0.033950407 0.4846829 0.39888376 -0.01810859
0.16207342 -0.034907095 -0.4937278 -0.27051854 0.017594405 -0.17323597 0.4358713 0.19273417
00000000: 1e4e a2bd e7fd a43e e94b 143d 9954 713e
00000010: 950f 0bbd 5b28 f83e 7e3a cc3e 7758 94bc
00000020: 93f6 253e befa 0ebd e4c9 fcbe 6881 8abe
00000030: 2422 903c c564 31be 862a df3e 1b5c 453e

encoder.lstm.bias_hh_l0 f4 [16]
0.33290115 -0.079415426 0.0326551 0.04557016 0.19355369 0.30554456 -0.41041952 -0.20248805
0.25323686 -0.063829534 -0.28994414 -0.26417178 -0.3598019 0.056219168 0.3197602 0.4305897
00000000: 0572 aa3e 8ea4 a2bd 5bc1 053d c7a7 3a3d
00000010: f032 463e 5670 9c3e 8222 d2be 0759 4fbe
00000020: 43a8 813e 0fb9 82bd 8f73 94be 8641 87be
00000030: f437 b8be 1246 663d 9cb7 a33e 4176 dc3e

encoder.lstm.weight_ih_l1 f4 [16, 4]
0.043907024 -0.51413757 -0.3560219 0.1791117 -0.4878628 -0.4658026 0.35636416 0.17844325
0.35172927 -0.52737164 0.44313046 -0.018592207 0.10068386 0.3652256 -0.28408396 0.117166154
0.3426357 -0.16497956 -0.14567707 0.17504986 0.28892633 -0.34004444 0.119736284 -0.029283121
-0.320251 -0.22989057 -0.15093763 0.23989399 -0.115787044 0.22194806 -0.031298637 0.090583384
-0.45401293 0.2354257 -0.28808457 -0.049779516 -0.07122167 -0.32989538 -0.20322736 -0.20558225
0.12581365 0.46492368 0.21757665 -0.41717628 0.009116771 0.119911775 0.12329651 -0.23693515
-0.13907367 -0.03514241 -0.3588354 0.070438236 0.3701579 0.076453224 0.48079732 0.005545383
0.06426078 0.15307333 0.40634075 0.27085933 0.15721546 -0.28469053 -0.1582866 -0.5421753
00000000: dad7 333d 859e 03bf 8148 b6be 0f69 373e
00000010: 27c9 f9be ae7d eebe 5d75 b63e d4b9 363e
00000020: dc15 b43e d401 07bf ffe1 e23e af4e 98bc
00000030: 5733 ce3d dafe ba3e 7473 91be cff4 ef3d
00000040: f26d af3e 67f0 28be 5f2c 15be 4540 333e
00000050: 27ee 933e 4e1a aebe 4c38 f53d 28e3 efbc
00000060: f0f7 a3be 6f68 6bbe 658f 1abe c5a6 753e
00000070: c221 edbd 5a46 633e 0033 00bd c883 b93d
00000080: 6274 e8be 6f13 713e d27f 93be 9be5 4bbd
00000090: abdc 91bd 0ce8 a8be d51a 50be 2784 52be
000000a0: 4bd5 003e 7a0a ee3e 6acc 5e3e 2198 d5be
000000b0: 825e 153c 4e94 f53d e182 fc3d 219f 72be
000000c0: 5469 0ebe 7df1 0fbd 46b9 b7be ec41 903d
000000d0: 5685 bd3e 8293 9c3d 112b f63e 0bb6 b53b
000000e0: 289b 833d 41bf 1c3e e50b d03e 13ae 8a3e
000000f0: 17fd 203e f5c2 91be e215 22be 00cc 0abf

encoder.lstm.weight_hh_l1 f4 [16, 4]
-0.30358404 0.45064116 -0.5268238 0.38540906 -0.517395 -0.022998836 0.22696428 0.22034237
-0.26503372 0.48764253 -0.32073888 0.19438832 -0.42674893 0.23787318 -0.24852623 -0.29874936
0.030080814 0.35683405 -0.39651057 0.22551234 -0.14562675 -0.1871154 -0.10755645 -0.10733327
0.007599828 -0.37516955 -0.30383876 -0.027612822 -0.17964663 -0.44095567 -0.2973466 -0.37733445
0.4739965 0.01298512 0.25225836 -0.43863022 -0.40354276 -0.38756225 0.22173093 0.48338062
0.5285933 -0.44804454 -0.059750978 -0.45983306 -0.5128442 0.42391965 0.19614074 0.07558335
-0.04632695 0.22633322 0.01844094 0.34740582 0.36285698 -0.10881508 0.1784019 0.24389723
-0.08721266 0.4565993 -0.0662306 -0.47805974 0.018901281 0.5564383 0.35107934 -0.30428296
00000000: 5e6f 9bbe 70ba e63e eddd 06bf 5654 c53e
00000010: 0074 04bf 0e68 bcbc 5369 683e 6ea1 613e
00000020: 80b2 87be 48ac f93e e337 a4be bb0d 473e
00000030: d67e dabe 0795 733e a97d 7ebe adf5 98be
00000040: 0a6c f63c f4b2 b63e 6f03 cbbe b5ec 663e
00000050: 2e1f 15be 2e9b 3fbe 8e46 dcbd 8cd1 dbbd
00000060: fa07 f93b 3916 c0be c190 9bbe 4934 e2bc
00000070: 49f5 37be f1c4 e1be d03d 98be fb31 c1be
00000080: abaf f23e 8abf 543c 0228 813e 2494 e0be
00000090: 289d cebe 8f6e c6be 6f0d 633e aa7d f73e
000000a0: e451 073f 1866 e5be 71bd 74bd 3d6f ebbe
000000b0: c249 03bf ff0b d93e 1ed9 483e 72cb 9a3d
000000c0: 54c1 3dbd e5c3 673e 7411 973c 2ddf b13e
000000d0: 64c8 b93e 71da debd fdae 363e 32c0 793e
000000e0: 8d9c b2bd 62c7 e93e e9a3 87bd 3fc4 f4be
000000f0: dcd6 9a3c be72 0e3f acc0 b33e faca 9bbe

encoder.lstm.bias_ih_l1 f4 [16]
0.50854915 0.11817163 -0.14977525 -0.41963097 0.3777233 -0.08457898 -0.35771298 -0.20191933
-0.017015971 0.21574932 0.13763961 0.24049164 0.523232 0.45384097 -0.059586078 -0.16912936
00000000: 4730 023f f803 f23d af5e 19be dfd9 d6be
00000010: f364 c13e bf37 adbd 2826 b7be f1c3 4ebe
00000020: 1465 8bbc 64ed 5c3e 66f1 0c3e 7143 763e
00000030: 88f2 053f d85d e83e 8810 74bd 3f30 2dbe

encoder.lstm.bias_hh_l1 f4 [16]
0.3067897 0.39204302 -0.06926066 -0.30924362 0.36103556 -0.15897334 0.03610614 0.39573127
-0.20783356 -0.30499464 -0.12163407 0.38458288 -0.06628846 -0.4219461 -0.2570701 0.56899726
00000000: 8a13 9d3e ddb9 c83e 88d8 8dbd 2e55 9ebe
00000010: a7d9 b83e e8c9 22be 08e4 133d 4a9d ca3e
00000020: 52d2 54be 4228 9cbe 491b f9bd 0ce8 c43e
00000030: 3ec2 87bd 5209 d8be b19e 83be cea9 113f

decoder.lstm.weight_ih_l0 f4 [16, 8]
-0.21060453 -0.31001294 -0.35594255 -0.1396491 -0.14133558 -0.16964188 -0.26417398 -0.34774172
-0.39881805 0.045025147 -0.45311695 -0.024319777 -0.4599137 -0.16366118 -0.25743702 0.07976254
-0.443605 0.18452154 0.52231985 0.3198961 0.48821986 0.47340944 0.12761179 -0.19931784
-0.31577355 -0.30836764 -0.29670253 -0.20555976 0.10308762 -0.044905256 0.39804628 -0.3732603
-0.3133307 0.40427166 -0.41500813 -0.28003198 -0.016848214 -0.0794285 0.14422004 -0.21045685
-0.27381927 0.28741089 0.12501228 -0.011295732 -0.14624663 -0.17901975 0.033444047 0.2172064
0.03439261 -0.28357884 0.018647833 -0.12095708 -0.00861848 -0.15530318 0.2882209 -0.21422558
0.22790563 0.17251073 -0.30798835 -0.16346152 -0.35169935 0.018880153 -0.40275055 0.048524987
0.24975184 -0.18654752 -0.53129077 0.25306365 -0.12568966 0.1767498 0.12152595 0.46035153
0.098972745 -0.3968778 -0.104555234 -0.11277176 0.29980606 0.09681788 0.3655403 -0.2033001
-0.18140718 0.24383107 0.10968695 -0.3572547 0.1888808 -0.52685094 -0.387432 -0.21787682
-0.44632006 -0.19174784 -0.34771705 0.3375152 0.42687 -0.25952747 0.31316712 -0.37252548
0.42491794 0.017730802 0.22017696 -0.34875888 0.34846175 -0.2627361 0.0579201 0.37341174
0.17970563 -0.33987933 -0.49156034 0.40395617 0.4731016 -0.18505049 0.4595954 -0.47492456
0.44961762 -0.116430216 -0.38800934 -0.31984887 0.294145 0.04702017 0.12419414 0.12836209
-0.32889944 0.25659558 0.5285343 0.3752184 0.3906331 -0.085990995 0.5182678 -0.4954378
00000000: b7a8 57be 04ba 9ebe 1a3e b6be 2c00 0fbe
00000010: 46ba 10be 9ab6 2dbe d041 87be 340b b2be
00000020: e131 ccbe 4a6c 383d f2fe e7be 453a c7bc
00000030: cf79 ebbe cc96 27be c9ce 83be 8b5a a33d
00000040: 3220 e3be 37f3 3c3e c1b6 053f 6cc9 a33e
00000050: f4f7 f93e b962 f23e aaac 023e fa19 4cbe
00000060: 12ad a1be 5de2 9dbe 65e9 97be 427e 52be
00000070: 9a1f d33d 93ee 37bd b9cc cb3e f91b bfbe
00000080: e26c a0be b2fc ce3e f27b d4be 5a60 8fbe
00000090: 4405 8abc 69ab a2bd 6bae 133e 0082 57be
000000a0: 0a32 8cbe 8527 933e 3803 003e bc11 39bc
000000b0: adc1 15be f450 37be a0fc 083d 5b6b 5e3e
000000c0: 44df 0c3d 3f31 91be 57c3 983c 58b8 f7bd
000000d0: 8634 0dbc cc07 1fbe b191 933e f35d 5bbe
000000e0: 1860 693e a7a6 303e a6b0 9dbe 7562 27be
000000f0: f011 b4be 8daa 9a3c 5235 cebe 23c2 463d
00000100: f2be 7f3e 5006 3fbe ac02 08bf 8f91 813e
00000110: cab4 00be e6fd 343e 99e2 f83d 32b3 eb3e
00000120: 39b2 ca3d 9133 cbbe 0e21 d6bd e1f4 e6bd
00000130: 2e80 993e 7448 c63d 1928 bb3e e72d 50be
00000140: cec2 39be daae 793e 8da3 e03d 17ea b6be
00000150: f869 413e b4df 06bf 7d5d c6be 1a1b 5fbe
00000160: 1084 e4be 8c59 44be f807 b2be cbce ac3e
00000170: b48e da3e c9e0 84be 7157 a03e a9bb bebe
00000180: d88e d93e 3040 913c 1276 613e 8690 b2be
00000190: 9469 b23e 5985 86be a03d 6d3d d32f bf3e
000001a0: c104 383e aa04 aebe ccad fbbe 58d3 ce3e
000001b0: 5f3a f23e e07d 3dbe 1750 eb3e 5029 f3be
000001c0: 4834 e63e f772 eebd 29a9 c6be 3bc3 a3be
000001d0: 2c9a 963e 3998 403d 7f59 fe3d 5a71 033e
000001e0: 8265 a8be 7f60 833e 064e 073f a01c c03e
000001f0: 1001 c83e 0c1c b0bd 33ad 043f 06aa fdbe

decoder.lstm.weight_hh_l0 f4 [16, 4]
-0.32402986 -0.1766828 0.4087136 -0.2858294 0.38147 -0.1833991 -0.566946 0.16491254
-0.37952912 -0.20934281 0.38847786 -0.44871148 0.34337813 -0.15495248 -0.09332886 0.32849643
-0.1442027 -0.18022199 -0.5020909 0.4553225 -0.48363075 0.31339085 0.21621862 -0.15773846
-0.2622569 -0.19358505 0.19442624 0.39846814 0.249389 0.18934776 0.0031247167 0.03715466
-0.15982337 -0.122639075 -0.2951401 0.05933675 -0.3758576 -0.18441808 -0.3285591 -0.040553313
-0.42735747 0.3177054 0.021367159 -0.18128844 -0.08339137 -0.48079455 0.21271002 0.34911945
0.25117618 0.27614528 0.46487057 0.10738487 0.10410505 0.43707338 0.3062689 -0.039341338
0.08569956 0.04498642 -0.21656607 -0.039747406 0.34467497 0.29595178 -0.44311774 -0.1608351
00000000: 3ee7 a5be 56ec 34be e942 d13e 3b58 92be
00000010: 0950 c33e f9cc 3bbe 6023 11bf d5de 283e
00000020: a451 c2be f65d 56be 92e6 c63e 83bd e5be
00000030: 42cf af3e ddab 1ebe 3423 bfbd af30 a83e
00000040: dfa9 13be 1d8c 38be 0789 00bf 0820 e93e
00000050: 739e f7be c474 a03e 6a68 5d3e 3186 21be
00000060: 8946 86be 293b 46be ac17 473e 0404 cc3e
00000070: d45f 7f3e 61e4 413e 0cc8 4c3b 7c2f 183d
00000080: bda8 23be 322a fbbd 9a1c 97be 180b 733d
00000090: 6870 c0be 18d8 3cbe e638 a8be 3b1b 26bd
000000a0: 99ce dabe 48aa a23e 2e0a af3c ada3 39be
000000b0: 18c9 aabd b42a f6be a8d0 593e c9bf b23e
000000c0: 2a9a 803e ea62 8d3e 8403 ee3e 99ec db3d
000000d0: 0735 d53d 15c8 df3e 47cf 9c3e 6224 21bd
000000e0: 4083 af3d ae43 383d 7fc3 5dbe 2dce 22bd
000000f0: 3d79 b03e fe86 973e 54e0 e2be f5b1 24be

decoder.lstm.bias_ih_l0 f4 [16]
0.32645884 0.4282581 -0.21877915 0.18184778 0.3979799 -0.38993156 -0.23649845 0.30424327
0.35645616 -0.011571199 -0.5047749 -0.53431404 0.12109516 0.40122586 -0.3153098 0.17068392
00000000: 9d25 a73e a544 db3e a407 60be 4e36 3a3e
00000010: 05c4 cb3e 1ca5 c7be a62c 72be c6c5 9b3e
00000020: 6c81 b63e 2095 3dbc ee38 01bf cec8 08bf
00000030: bd00 f83d 7a6d cd3e 4970 a1be c4c7 2e3e

decoder.lstm.bias_hh_l0 f4 [16]
-0.53228784 0.3296539 -0.08646261 -0.07245195 -0.5084932 -0.23149434 -0.16650835 -0.12369926
0.26991218 0.38386825 0.15509434 0.27003318 0.03261069 0.055577476 -0.024201397 -0.17758262
00000000: 0444 08bf 65c8 a83e 4f13 b1bd b061 94bd
00000010: 9c2c 02bf da0c 6dbe 2a81 2abe 0a56 fdbd
00000020: ee31 8a3e 618a c43e 0dd1 1e3e ca41 8a3e
00000030: c992 053d 35a5 633d 0242 c6bc 38d8 35be

decoder.lstm.weight_ih_l1 f4 [16, 4]
-0.17908719 -0.24391164 -0.18069573 0.009637225 0.1143347 0.35563207 0.039838273 -0.10660398
0.18696287 0.13094404 0.36238897 -0.27460793 0.19076079 -0.4271304 0.31121245 -0.3978486
-0.13274491 0.47458053 0.014560449 -0.4330375 0.13104753 0.26155213 -0.37219745 0.271006
-0.29479694 0.38455373 -0.2416083 -0.2441543 -0.35995406 -0.5135618 0.46783108 0.35992634
0.31255087 -0.34631258 0.025249442 -0.015127501 -0.38609883 -0.2704795 0.017109904 -0.12730627
0.2224576 -0.09576093 0.46773565 0.07013478 0.11858147 0.07615963 0.49128973 0.37944555
0.2745509 0.50218207 -0.1899215 -0.16296382 -0.23420039 0.21421583 -0.40836534 0.031123983
0.4875903 0.5227445 -0.09780204 0.39535248 -0.34611118 0.36819384 0.04060009 0.22991946
00000000: a262 37be f9c3 79be 4d08 39be 74e5 1d3c
00000010: 5028 ea3d 6815 b63e 752d 233d 3053 dabd
00000020: 3273 3f3e 3216 063e 0c8b b93e 6999 8cbe
00000030: cc56 433e d6b0 dabe 3d57 9f3e d0b2 cbbe
00000040: 48ee 07be 38fc f23e f38e 6e3c 17b7 ddbe
00000050: 5331 063e 29ea 853e aa90 bebe 4cc1 8a3e
00000060: a0ef 96be 3ae4 c43e 2b68 77be 9603 7abe
00000070: e64b b8be c978 03bf 8e87 ef3e 4448 b83e
00000080: ab06 a03e e24f b1be ebd7 ce3c 57d9 77bc
00000090: bfae c5be 4a7c 8abe 122a 8c3c 935c 02be
000000a0: edcb 633e 4e1e c4bd 0c7b ef3e d3a2 8f3d
000000b0: d7da f23d 95f9 9b3d 548a fb3e b046 c23e
000000c0: f091 8c3e 018f 003f c87a 42be fddf 26be
000000d0: 3ad2 6fbe 655b 5b3e 4315 d1be b9f7 fe3c
000000e0: 70a5 f93e 95d2 053f 704c c8bd a46b ca3e
000000f0: 7c35 b1be e783 bc3e 484c 263d 0270 6b3e

decoder.lstm.weight_hh_l1 f4 [16, 4]
0.32476693 -0.08549766 0.0038202517 -0.29209834 -0.15661262 -0.23484504 0.05374228 0.3760514
-0.088598415 -0.070023544 -0.5579423 0.35296506 -0.17444693 0.29965267 0.3305602 -0.19354202
0.1785665 0.17393602 0.2829852 0.52926016 0.100723244 0.52967316 0.26734906 0.5226113
0.19800928 0.57194734 -0.11566431 -0.37417865 -0.29313996 -0.18318164 0.025442474 -0.5488216
-0.23165737 0.12506954 0.39915767 0.23988189 -0.20117271 0.019562375 -0.52811515 0.34633648
-0.39547396 -0.3667808 0.21181086 -0.14759563 0.5243529 0.21239842 0.3523259 -0.064161725
-0.41014472 0.4259692 -0.49494773 0.33465552 -0.2528462 -0.28499106 0.28155917 0.46500206
-0.46715745 0.47929382 -0.4357428 0.08852781 0.20015341 -0.06873158 0.22997364 -0.25067133
00000000: da47 a63e 6619 afbd 305d 7a3b ea8d 95be
00000010: 0f5f 20be 387b 70be dd20 5c3d cf89 c03e
00000020: 1673 b5bd 8168 8fbd 4ed5 0ebf d6b7 b43e
00000030: 37a2 32be 136c 993e 303f a93e e12f 46be
00000040: 23da 363e 491c 323e 70e3 903e 987d 073f
00000050: fd47 ce3d a998 073f fae1 883e dbc9 053f
00000060: f2c2 4a3e 246b 123f 69e1 ecbd 5894 bfbe
00000070: 7116 96be f893 3bbe bc6c d03c 937f 0cbf
00000080: 9737 6dbe 3b12 003e 655e cc3e 99a3 753e
00000090: 3800 4ebe 4641 a03c 8e32 07bf 0453 b13e
000000a0: 907b cabe b1ca bbbe f2e4 583e 4f23 17be
000000b0: fe3b 063f f97e 593e 0f64 b43e 3967 83bd
000000c0: 7dfe d1be a318 da3e ca69 fdbe f857 ab3e
000000d0: 0f75 81be 59ea 91be 8628 903e c014 ee3e
000000e0: 432f efbe 0066 f53e ae19 dfbe 124e b53d
000000f0: 04f5 4c3e 25c3 8cbd 367e 6b3e fe57 80be

decoder.lstm.bias_ih_l1 f4 [16]
-0.10886733 0.17324366 -0.033655595 -0.45209035 0.34371766 0.44918695 0.45974672 0.16736326
-0.56657845 0.53829813 -0.56916755 0.16769807 -0.30281204 0.5494602 -0.030917382 -0.40257892
00000000: d6f5 debd c966 313e 73da 09bd 6378 e7be
00000010: c3fb af3e d5fb e53e ec63 eb3e 4661 2b3e
00000020: 490b 11bf e8cd 093f f7b4 11bf 0bb9 2b3e
00000030: 2e0a 9bbe 6ca9 0c3f 7346 fdbc d31e cebe

decoder.lstm.bias_hh_l1 f4 [16]
0.02242975 -0.29713488 -0.29240912 -0.13595043 0.12195594 0.13620007 -0.29998308 -0.49638152
0.19365755 0.04012303 -0.2748555 0.4222999 -0.16301638 -0.32759282 -0.19159782 -0.019779569
00000000: 98be b73c 1022 98be a6b6 95be 9736 0bbe
00000010: 09c4 f93d 0878 0b3e 6297 99be b825 febe
00000020: 2a4e 463e 0c58 243d dcb9 8cbe b137 d83e
00000030: c4ed 26be 3fba a7be 3832 44be c308 a2bc

decoder.fc.weight f4 [8, 4]
0.45809433 -0.4063959 -0.23746878 -0.35598642 -0.34901878 -0.48132557 0.21098042 0.24947123
0.17738971 -0.48600048 0.4904456 0.19278412 -0.38397133 -0.40397972 0.00013387203 0.375037
0.31871352 0.14895986 0.3138032 0.35926908 0.15478936 -0.48882842 0.37599468 -0.11233244
-0.18716909 0.2955753 0.37162316 0.35873675 0.27943245 0.55382323 -0.31001288 0.26843497
00000000: 578b ea3e 2013 d0be 042b 73be da43 b6be
00000010: 97b2 b2be 4e70 f6be 400b 583e 6375 7f3e
00000020: a6a5 353e 0ed5 f8be b01b fb3e 3369 453e
00000030: e497 c4be 6ed6 cebe 0060 0c39 da04 c03e
00000040: 6b2e a33e ef88 183e d0aa a03e 1ef2 b73e
00000050: 1a81 1e3e b847 fabe 6082 c03e 8d0e e6bd
00000060: 41a9 3fbe a555 973e 6445 be3e 58ac b73e
00000070: c511 8f3e 5cc7 0d3f 02ba 9ebe 4f70 893e

decoder.fc.bias f4 [8]
0.1863317 0.20247993 0.16504897 -0.0868001 0.23593326 0.28031692 0.036405727 -0.39362842
00000000: bdcd 3e3e e656 4f3e 9902 293e 40c4 b1bd
00000010: 7d98 713e b385 8f3e 2c1e 153d aa89 c9be
